model/Net.pth (torch_old, 37656 bytes, 8 tensors)

layer.0.weight f4 [64, 42]
0	0xbdbc776b	-0.09202465
1	0x3ccf9bb8	0.025342807
2	0xbb953dfb	-0.004554508
3	0x3d99605c	0.07489082
4	0x3d9ebdbe	0.07751034
5	0x3dbcea30	0.09224355
6	0xbb9e8648	-0.004837785
7	0xbdc34921	-0.095354326
8	0xbcabc901	-0.02096987
9	0x3d8ff894	0.070298344
10	0x3d9f3df2	0.07775487
11	0xbe026ffb	-0.1273803
12	0x3d82e8b1	0.063920386
13	0x3dca30c6	0.09872584
14	0xbd9130f1	-0.07089413
15	0xbbae2fdd	-0.0053157643
16	0xbd3a535c	-0.045489654
17	0x39a58c12	0.00031575613
18	0x3d6a167c	0.05715035
19	0xbe168409	-0.14698805
20	0xbdd6f7c5	-0.10496477
21	0x3dc1cbff	0.09462737
22	0x3c938443	0.018007403
23	0x3dc208ef	0.0947436
24	0xbdf71c68	-0.12065965
25	0x3e150584	0.14552885
26	0xbd8c1367	-0.06839638
27	0xbc6a1f90	-0.014289752
28	0x3dee31f5	0.11630622
29	0x3df8ddcb	0.12151679
30	0xbdcb8b5e	-0.099386916
31	0x3e0211c1	0.12702085
32	0xbcb2d486	-0.021829855
33	0x3daf7969	0.08568079
34	0xbd3a88de	-0.045540683
35	0xbd7e2f08	-0.06205657
36	0x3c104595	0.008805652
37	0xbd33bfb2	-0.043883987
38	0xbd994200	-0.074832916
39	0x3dd1ea5d	0.102497794
40	0xbda84719	-0.08216686
41	0xbdc294a9	-0.09501011
42	0x3d9abb32	0.07555236
43	0x3dc3d68a	0.095624045
44	0x3df9751e	0.121805415
45	0xbe041c40	-0.12901402
46	0x3dba1b9c	0.09087297
47	0xbcd80738	-0.02637063
48	0xbe071f0e	-0.1319544
49	0x3c775b00	0.01509738
50	0xbd0bfd84	-0.03417732
51	0x3ccd2aa0	0.02504474
52	0xbcc5d4f0	-0.024149388
53	0x3cd8a4b0	0.026445717
54	0x3dc1e6be	0.09467839
55	0xbca7cd98	-0.020483777
56	0xbb04ce40	-0.0020264536
57	0xbe1c962a	-0.15291658
58	0xbe08c295	-0.13355477
59	0x3d1eae34	0.03874035
60	0x3dda2c42	0.10652973
61	0xbccad230	-0.024758428
62	0xbda8b536	-0.08237688
63	0xbe0f1c6f	-0.1397569
64	0xbe19a242	-0.15003303
65	0xbdda97c6	-0.1067348
66	0xbd43a7b2	-0.04776735
67	0x3ddc8736	0.10767977
68	0xbce2daa8	-0.027692154
69	0xbd268ae2	-0.040659793
70	0xbda0b911	-0.078477986
71	0xbbf02380	-0.0073284507
72	0x3d5d06f8	0.053961724
73	0x3df5293a	0.11970754
74	0x3d0ab0e0	0.033860087
75	0x3e0381db	0.12842505
76	0x3daa2d0a	0.08309372
77	0x3d546668	0.051855475
78	0xbd6e9f6e	-0.058257513
79	0xbd87ad32	-0.06624831
80	0xbe1870b9	-0.1488675
81	0xbdcfb1f2	-0.10141362
82	0xbd9feab2	-0.078084365
83	0xbdb3c247	-0.0877729
84	0x3b27dd5c	0.0025614118
85	0xbba69d8c	-0.005084699
86	0xbd940d12	-0.072290555
87	0xbdb982d6	-0.09058158
88	0x3d612bf9	0.054973576
89	0xbd407e88	-0.04699567
90	0xbd9dc733	-0.0770401
91	0x3dabd8a0	0.08390927
92	0x3d8a9c4f	0.06768095
93	0x3e0b7de0	0.13622236
94	0xbca937c2	-0.02065647
95	0x3e0ed355	0.13947804
96	0x3bb832d3	0.005621293
97	0xbdf3c88f	-0.11903488
98	0x3d81532c	0.06314692
99	0x3e071ee7	0.13195382
100	0xbdd1cd74	-0.10244265
101	0x3d64b072	0.055832334
102	0x3db27f6f	0.08715712
103	0x3bb0c255	0.00539426
104	0xbe139905	-0.14413841
105	0x3d85140e	0.06497966
106	0xbe0bd124	-0.13654
107	0xbde23f9b	-0.11047288
108	0xbd63b42c	-0.055591747
109	0x3c8c8be1	0.017156543
110	0x3bf973bb	0.007612673
111	0x3db1d898	0.0868389
112	0x3d6e9efd	0.05825709
113	0x3dcbff1c	0.099607676
114	0x3dd7d5ae	0.10538803
115	0xbe0694f0	-0.13142753
116	0xbdca60f7	-0.09881776
117	0xbc3247fe	-0.010881422
118	0x3cf3fabd	0.029782647
119	0x3dcd7bcf	0.1003338
120	0x3e02a79e	0.12759253
121	0xbd8af722	-0.06785418
122	0xbe1cac03	-0.15299992
123	0x3e09a714	0.13442641
124	0x3ce3ad4d	0.027792597
125	0x3d1e53ff	0.038654324
126	0xbe065a30	-0.13120341
127	0xbd82f424	-0.063942224
128	0xbd59acb6	-0.053143226
129	0x3df5e3a2	0.12006308
130	0x3da91f60	0.082579374
131	0xbe046df5	-0.1293257
132	0xbdc12880	-0.09431553
133	0x3db36b8a	0.08760746
134	0xbd36c586	-0.044621967
135	0xbde26d8a	-0.11056049
136	0x3cef0d88	0.029181257
137	0xbd18bb6e	-0.037288122
138	0xbc422db0	-0.011851713
139	0xbd8664ec	-0.06562218
140	0xbdcbb57b	-0.09946724
141	0xbd4ed730	-0.050498188
142	0xbd863425	-0.065529145
143	0xbdde8923	-0.108660005
144	0xbc906500	-0.017626286
145	0x3df76616	0.12080018
146	0xbde115e1	-0.10990501
147	0xbda9ec1a	-0.08296986
148	0xbdceb0b0	-0.10092294
149	0xbdf6e9ba	-0.120562986
150	0xbe03704c	-0.12835807
151	0xbda9fec1	-0.083005436
152	0xbd398a9a	-0.045298196
153	0xbe076fc2	-0.13226226
154	0x3e1bae37	0.15203176
155	0x3b7d5ec0	0.0038661212
156	0x3e1984af	0.14992021
157	0xbcfbc890	-0.030735284
158	0x3deab25e	0.11459802
159	0x3d9e3c2a	0.07726319
160	0x3d91fd4c	0.07128391
161	0xbd44b4b6	-0.048023902
162	0x3cca96b8	0.024730071
163	0x3deeef0a	0.11666687
164	0x3dfc1f62	0.12310673
165	0xbdbc150a	-0.091837004
166	0x3e1917ad	0.14950438
167	0x3d23e1a4	0.04001011
168	0x3d035d6c	0.032071516
169	0x3cca9a75	0.024731854
170	0xbd9fccd4	-0.0780274
171	0xbde5c70d	-0.112196065
172	0x3da31536	0.0796303
173	0xbc9c85c5	-0.019106755
174	0x3a811f4b	0.0009851245
175	0xbcb4741a	-0.022028018
176	0x3d272120	0.040803075
177	0x3dd061ff	0.10174941
178	0x3de35c03	0.11101534
179	0xbc0cf164	-0.008602474
180	0xbde300dc	-0.11084148
181	0xbd9d2dca	-0.07674749
182	0x3d997003	0.07492068
183	0x3dac9357	0.0842654
184	0x3d727dd8	0.059202045
185	0x3e042d9e	0.12908027
186	0xbd841f37	-0.06451266
187	0xbc74a4d2	-0.014931874
188	0x3de57d7c	0.11205575
189	0xbda740ea	-0.08166678
190	0x3d52f4a0	0.051502824
191	0x3e0960ba	0.13415805
192	0x3de57011	0.112030156
193	0x3cae54c8	0.021280661
194	0x3d428d08	0.04749778
195	0xbd165a15	-0.036707003
196	0xbdef25d4	-0.11677137
197	0x3ceaf685	0.028682003
198	0xbdb978d6	-0.09056251
199	0xbc6baca9	-0.014384427
200	0xbe11acd7	-0.1422609
201	0xbdd66508	-0.10468489
202	0x3e0a1802	0.13485721
203	0xbc884c72	-0.016638014
204	0xbc8433f5	-0.016138056
205	0x3d2b4756	0.041816078
206	0x3dd08520	0.101816416
207	0xbd4609f0	-0.04834932
208	0x3d80c0e2	0.062867895
209	0xbdba6399	-0.09101028
210	0xbe185187	-0.1487485
211	0x3d8cc10e	0.0687276
212	0x3dc5bcba	0.09655137
213	0xbd676908	-0.05649665
214	0xbd674b62	-0.056468375
215	0xbdba2bc1	-0.09090377
216	0xbdbc8d88	-0.092066824
217	0x3e00c045	0.12573345
218	0xbe17e6eb	-0.14834182
219	0x3de53c92	0.111931935
220	0x3df04a66	0.117329404
221	0xbdb0e124	-0.08636692
222	0xbda8063b	-0.08204313
223	0x3d25593c	0.040368304
224	0x3d8c381c	0.068466395
225	0xbc796620	-0.015222102
226	0xbe1cf1f5	-0.15326674
227	0xbdeca206	-0.11554341
228	0x3d8b15ce	0.06791268
229	0xbde0c9ce	-0.10975991
230	0x3db4952a	0.08817513
231	0xbe0c6740	-0.13711262
232	0xbcf365e4	-0.029711671
233	0xbe119d2d	-0.14220114
234	0xbc86ff18	-0.01647906
235	0x3df0eef2	0.11764325
236	0x3d68bd4c	0.056821153
237	0x3d938504	0.07203105
238	0xbdf30a3a	-0.11867185
239	0x3d82bd6c	0.063837856
240	0xbd2091c8	-0.039201528
241	0xbbb72be0	-0.005589947
242	0xbda28340	-0.0793519
243	0xbdedae07	-0.11605459
244	0xbde6467a	-0.11243911
245	0xbdbd4344	-0.092413455
246	0xbbf5a9a0	-0.0074970275
247	0x3d99b394	0.07504955
248	0xbb7b9240	-0.0038386732
249	0xbdc58867	-0.09645157
250	0x3de3a356	0.11115138
251	0x3da77290	0.08176148
252	0xbd131d31	-0.03591651
253	0x3d56c86f	0.052437242
254	0x3c3e23e4	0.011605237
255	0x3d9c6833	0.07637062

layer.0.bias f4 [64]
0	0xbdd6bdfb	-0.10485455
1	0xbc9f4b20	-0.019445002
2	0x3cd47c5e	0.02593821
3	0x3e08016b	0.13281791
4	0x3d0cca71	0.03437275
5	0x3d93f960	0.07225299
6	0x3e1d8faf	0.15386842
7	0x3c3cfaf9	0.011534446
8	0xbe0a33b8	-0.13496292
9	0xbde5eb2e	-0.112264976
10	0x3d706ef4	0.058699563
11	0xbdf800b0	-0.12109506
12	0x3d341adf	0.04397094
13	0x3e08129a	0.13288346
14	0x3d07573a	0.03304217
15	0xbe12aba0	-0.14323282
16	0x3dcea7ca	0.10090597
17	0xbd13ad63	-0.036054026
18	0x3db1eaaa	0.08687337
19	0x3d25b435	0.040455062
20	0xbd2516b9	-0.040304873
21	0xbd2575a0	-0.04039538
22	0xbd6887fb	-0.056770306
23	0x3b8afa55	0.0042412677
24	0x3e1af894	0.15133888
25	0x3d89cea8	0.0672887
26	0xbe105888	-0.14096272
27	0xbdb1eb29	-0.08687431
28	0x3dff95ed	0.12479768
29	0xbdac18c3	-0.084031604
30	0xbd10bd04	-0.03533651
31	0x3d311488	0.04323247
32	0xbcb97680	-0.022639513
33	0xbd9f8dea	-0.0779074
34	0xbda4f4e2	-0.0805452
35	0x3de0b7c4	0.109725505
36	0xbc9035fb	-0.017603865
37	0xbe01c7e1	-0.12673904
38	0x3ccede0d	0.025252366
39	0x3e095325	0.13410623
40	0x3e1301df	0.14356183
41	0xbdb607d8	-0.08888215
42	0x3d2be6e8	0.041968256
43	0xbdea2f9f	-0.11434864
44	0xbe029abb	-0.12754337
45	0xbdadd1a7	-0.08487254
46	0x39c834fd	0.00038186452
47	0x3dd190c7	0.10232692
48	0xbe0d1655	-0.1377805
49	0xbd9035fd	-0.070415474
50	0x3d2ac448	0.041691095
51	0x3bbe7816	0.005812655
52	0xbd9d0802	-0.07667543
53	0xbdf621b0	-0.12018144
54	0x3df23502	0.11826517
55	0x3c478f63	0.012180182
56	0xbda992dd	-0.08279965
57	0x3e06b0c3	0.13153367
58	0x3dc4d765	0.09611396
59	0x3dc6580a	0.09684761
60	0xbbd99b60	-0.0066408366
61	0x3dd04d7e	0.101710305
62	0xbde4e561	-0.11176563
63	0xbd30d4de	-0.043171756

layer.2.weight f4 [64, 64]
0	0x3df32b66	0.11873512
1	0xbb78cc00	-0.003796339
2	0x3d8cbb6f	0.068716876
3	0x3ddcea1c	0.1078684
4	0xbb9276ef	-0.0044697444
5	0x3ce539b8	0.027981624
6	0x3deb140f	0.11478435
7	0xbd2033e8	-0.039112
8	0x3dd1cfac	0.102446884
9	0x3db01c66	0.085991666
10	0xbb5c4ec0	-0.0033616275
11	0x3d8b6070	0.06805503
12	0x3d79a4cd	0.060948182
13	0x3b5f6613	0.003408794
14	0x3d36119d	0.04445039
15	0x3df79638	0.12089199
16	0x3d8e8b55	0.06960169
17	0xbd19ab85	-0.03751709
18	0xbdd3a4f8	-0.103342
19	0xbc4601b0	-0.012085363
20	0x3ddcfcdd	0.10790417
21	0x3d290341	0.04126287
22	0x3de3cbfd	0.11122892
23	0xbdde69f8	-0.10860056
24	0x3d30ce92	0.04316575
25	0xbd36b9a4	-0.044610634
26	0xbd88243b	-0.066475354
27	0xbc39e0f0	-0.011345133
28	0x3dcfcd07	0.10146528
29	0x3d89fbca	0.06737478
30	0xbd9c4ef4	-0.076322466
31	0xbd9f6a90	-0.07783997
32	0x3d45787c	0.048210606
33	0x3d8d2742	0.068922535
34	0x3c63b6f0	0.013898596
35	0x3d04fb06	0.032465957
36	0x3deef41d	0.11667655
37	0x3d3deb13	0.046366762
38	0x3d88229f	0.066472284
39	0x3db89316	0.090124294
40	0x3d989bca	0.074515894
41	0x3d3bd604	0.045858398
42	0xbd8a06fd	-0.06739614
43	0x3dae89fc	0.08522412
44	0x3dca4410	0.09876263
45	0x3dddea12	0.10835661
46	0xbcf068f8	-0.029346928
47	0x3dc6ff3d	0.097166516
48	0xbce7a780	-0.028278112
49	0x3defe57d	0.11713693
50	0xbcc619d0	-0.02418223
51	0x3cd896da	0.02643912
52	0xbdad534a	-0.08463152
53	0xbbd92420	-0.006626621
54	0xbd88f1b8	-0.06686729
55	0xbd3bb983	-0.045831215
56	0x3d99e8c3	0.07515099
57	0xbd93ed53	-0.072230004
58	0x3d42c729	0.047553215
59	0x3d8384c6	0.06421809
60	0xbdbc9f24	-0.09210041
61	0xbd93d806	-0.072189376
62	0xbdfe20a6	-0.12408571
63	0x3b89c9f8	0.0042049848
64	0xbd8d5168	-0.06900293
65	0x3de6c8da	0.11268778
66	0xbdaccb5a	-0.08437224
67	0xbd20a028	-0.039215237
68	0xbd543f70	-0.05181831
69	0xbd298e1c	-0.04139529
70	0x3d03bb40	0.032160997
71	0xbd500c74	-0.050793126
72	0x3d9a1a42	0.075245395
73	0x3c5e1af0	0.013556227
74	0x3d878af8	0.06618303
75	0x3db913f8	0.09037012
76	0x3c608d60	0.013705581
77	0x3d1e36c8	0.038626462
78	0xbc453b00	-0.0120379925
79	0xbb027980	-0.0019908845
80	0x3cc0aae0	0.02351898
81	0xbd9ac7dc	-0.075576514
82	0x3dd7381e	0.105087504
83	0x3d094d88	0.033521205
84	0x3c9b4190	0.018952161
85	0xbd91cdac	-0.07119307
86	0x3d06af28	0.032881886
87	0x3c35f7a0	0.011106402
88	0x3cce5908	0.025188938
89	0xbd01506c	-0.031570837
90	0xbd8a3c40	-0.06749773
91	0x3bc05dc0	0.005870551
92	0x3c0c0290	0.008545533
93	0x3d86a05e	0.06573556
94	0xbddfa876	-0.10920803
95	0x3de4a55c	0.11164352
96	0x3cf73e50	0.03018108
97	0xbd898bca	-0.06716116
98	0xbd5783c4	-0.052615896
99	0x3dde5fb4	0.10858098
100	0x3d91fb76	0.071280405
101	0x3d918f32	0.071073905
102	0x3dbed5da	0.09318133
103	0x3daa254e	0.083078966
104	0xbd887f1a	-0.06664868
105	0xbd94cd34	-0.07265702
106	0xbde0033e	-0.109381184
107	0xbd7cc760	-0.061713576
108	0xbcf934f0	-0.03042075
109	0xbd84a70a	-0.06477173
110	0x3d69730c	0.056994483
111	0x3ce92e88	0.02846457
112	0x3da04c68	0.07827073
113	0xbcbced48	-0.023062363
114	0x3c594cb0	0.013262913
115	0x38dfd800	0.00010673702
116	0xbdaa7074	-0.0832223
117	0x3d88b324	0.06674793
118	0x3cdeb570	0.027186126
119	0xbceb1ce8	-0.028700307
120	0xbdb74606	-0.08948903
121	0xbd3d6d98	-0.046247095
122	0x3d8ea472	0.06964959
123	0x3ca69208	0.020333305
124	0xbd39d378	-0.045367688
125	0xbdb1ff48	-0.08691269
126	0xbc9bf0b0	-0.019035667
127	0x3da1b436	0.07895701
128	0x3c9295fa	0.01789378
129	0xbd8923a4	-0.06696251
130	0x3d6dff47	0.05810478
131	0xbd372b04	-0.044718757
132	0xbcfce3f3	-0.030870413
133	0xbc292750	-0.010324314
134	0xbd89fdc8	-0.06737858
135	0x3dad4f36	0.08462374
136	0xbdd7a322	-0.10529162
137	0xbdd532ec	-0.10410103
138	0xbd0e4a9c	-0.03473912
139	0xbdade7af	-0.08491456
140	0xbcfd16be	-0.030894633
141	0x3c1db28a	0.009625087
142	0x3dde83c5	0.10864977
143	0x3dd20c62	0.10256268
144	0x3dc1bd0e	0.094598874
145	0xbddb4d38	-0.10708088
146	0xbda96acc	-0.08272323
147	0xbb7b147d	-0.0038311773
148	0xbd81046a	-0.0629967
149	0xbd291cfe	-0.041287415
150	0x3d322272	0.04348988
151	0xbbdd6767	-0.0067567113
152	0x3d840b39	0.06447453
153	0x3dbccca4	0.092187196
154	0x3da08dd6	0.07839553
155	0x3d4b0a30	0.049570262
156	0x3da48eab	0.08035024
157	0xbdd34070	-0.10315025
158	0xbdad0542	-0.084482685
159	0xbced0480	-0.02893281
160	0xbd5eee6c	-0.054426596
161	0x3caa993f	0.020825027
162	0xbdd176cc	-0.10227737
163	0x3d83da7e	0.064381585
164	0x3dd1f2ea	0.1025141
165	0xbd9442e7	-0.07239323
166	0x3c83f89b	0.016109755
167	0xbc973878	-0.018459544
168	0x3ddce69a	0.10786171
169	0x3dc11682	0.09428121
170	0x3dc36609	0.09540946
171	0xbdbb24b6	-0.091378614
172	0xbd7eb4b2	-0.062184043
173	0xbcf5fcc9	-0.030027764
174	0x3ddbfe63	0.1074188
175	0xbb698e43	-0.0035637773
176	0xbcd0be28	-0.025481299
177	0xbd8b029a	-0.067876056
178	0x3dc6e540	0.09711695
179	0x3dddf8f6	0.10838501
180	0x3bb110a0	0.005403593
181	0xbdecad40	-0.11556482
182	0x3d3123bc	0.04324697
183	0xbd2b9768	-0.04189244
184	0xbcd098a3	-0.025463408
185	0xbda1cd4f	-0.07900488
186	0x3ccbba4c	0.024869107
187	0xbdf0ad95	-0.11751858
188	0x3cc7ffb0	0.024413913
189	0x3ddd9f24	0.10821369
190	0xbd45a1fd	-0.048250187
191	0x3cb9b3a0	0.02266866
192	0xbdc41603	-0.09574511
193	0x3d590fe8	0.052993685
194	0xbd6d194f	-0.057885464
195	0xbdc06026	-0.09393339
196	0x3d5a91c4	0.05336167
197	0xbdde1dda	-0.108455375
198	0xbde7a7ae	-0.11311279
199	0x3d5bd948	0.053674012
200	0xbd37b75a	-0.044852592
201	0xbdd8795a	-0.10570021
202	0xbdf7cb4a	-0.12099321
203	0x3bb22d48	0.005437527
204	0xbcd22d90	-0.025656492
205	0x3ce0965f	0.027415453
206	0x3b790140	0.003799513
207	0xbdb27f9c	-0.08715746
208	0xbd55d695	-0.052206594
209	0x3d86bfd6	0.065795586
210	0xbda73dee	-0.08166109
211	0x3cf86cb6	0.030325275
212	0x3c65e185	0.014030819
213	0x3db328f6	0.08748047
214	0x3ddf0e45	0.108913936
215	0x3d477dcf	0.048703965
216	0xbdf37d30	-0.11889112
217	0xbdf9db3a	-0.12200017
218	0x3aeb515b	0.0017953323
219	0x3d1107c8	0.03540781
220	0xbcca8631	-0.02472219
221	0xbdf9abfa	-0.12191005
222	0xbdff1e7e	-0.12456988
223	0xbde9926c	-0.11404881
224	0xbdee7b16	-0.116445705
225	0xbccebd79	-0.025236832
226	0xbdd7399a	-0.105090335
227	0xbd992b61	-0.07478977
228	0x3d9e502a	0.07730134
229	0xbd9fa842	-0.077957645
230	0x3d1d443a	0.038395144
231	0x3dc5dff4	0.09661856
232	0xbddf1bdc	-0.10893986
233	0x3db59f7c	0.0886831
234	0xbd099d51	-0.033597294
235	0xbcca9b91	-0.024732383
236	0xbdc654f0	-0.09684169
237	0xbe0351ec	-0.1282422
238	0x3d92a68e	0.07160674
239	0x3dd81760	0.105513334
240	0x3dace474	0.084420115
241	0x3cef1cea	0.029188592
242	0x3d230440	0.039798975
243	0x3c9ec210	0.019379646
244	0xbb140e40	-0.0022591501
245	0xbd6fb640	-0.058523417
246	0xbda18fe6	-0.078887746
247	0x3db13cfd	0.08654211
248	0xbd953c8f	-0.07286941
249	0x3dce2bd4	0.10066953
250	0x3dc5605f	0.09637522
251	0xbae58b6e	-0.0017512867
252	0xbd21b0b8	-0.039475173
253	0xbd906d72	-0.07052125
254	0x3dbcd917	0.09221094
255	0xbde4c1a9	-0.1116975

layer.2.bias f4 [64]
0	0x3d874df1	0.06606663
1	0xbdfdbca2	-0.123894945
2	0xbdee2d8b	-0.116297804
3	0xbe03046a	-0.12794653
4	0x3d29ac5b	0.041424137
5	0x3d242ec5	0.040083665
6	0xbda1cfdb	-0.079009734
7	0xbd519790	-0.051169932
8	0x3d834552	0.06409706
9	0xbd941420	-0.07230401
10	0x3d167930	0.036736667
11	0xbae39b80	-0.0017365068
12	0x3d84edac	0.06490645
13	0xbd2956ed	-0.041342665
14	0xbd2ab75b	-0.041678768
15	0xbd8ef237	-0.069797926
16	0x3d89e335	0.067327894
17	0xbca9c540	-0.020723939
18	0xbdda94a8	-0.10672885
19	0x3d312e92	0.043257304
20	0x3c5ee123	0.013603481
21	0x3d878ab2	0.06618251
22	0x3c182eac	0.009288471
23	0x3d20f090	0.03929192
24	0xbdf24804	-0.11830142
25	0xbb7cc4e1	-0.0038569497
26	0xbd69e6fb	-0.057105046
27	0x3da718bd	0.08159015
28	0xbd26caa8	-0.04072061
29	0xbdb00d20	-0.085962534
30	0x3c8b8df4	0.017035462
31	0xbca15ca7	-0.0196975
32	0xbc9b5485	-0.0189612
33	0x3c8bb63d	0.017054671
34	0xbbf194a0	-0.007372454
35	0x3d52df74	0.051482633
36	0xbc622a08	-0.013803966
37	0xbdcc1404	-0.09964755
38	0xbc07e760	-0.00829491
39	0xbe013123	-0.126164
40	0x3cddfc82	0.027097944
41	0x3cec51b6	0.028847557
42	0x3dd4bc03	0.10387423
43	0x3ddad220	0.106846094
44	0xbd42a6fc	-0.04752253
45	0x3dfc6e48	0.12325722
46	0xbd91b78d	-0.07115088
47	0x3c837330	0.016046137
48	0x3db5f129	0.08883888
49	0x3df69841	0.12040759
50	0x3da11181	0.07864667
51	0xbdf7dbc8	-0.12102467
52	0x3dfc5bcb	0.123221956
53	0x3d1b3084	0.037888065
54	0xbd9286e5	-0.07154635
55	0xbbe861e2	-0.0070917467
56	0x3d8c7c90	0.06859696
57	0x3d73e6d8	0.05954632
58	0xbd784365	-0.060611147
59	0xbd455490	-0.04817635
60	0xbd0be0a7	-0.034149792
61	0xbd6ab1d4	-0.057298496
62	0xbc225bb5	-0.00990956
63	0xbcc4d1b0	-0.024025768

layer.4.weight f4 [32, 64]
0	0xbb94aa20	-0.004536882
1	0xbd171588	-0.03688577
2	0xbda680f4	-0.081300646
3	0xbd70dde8	-0.058805376
4	0xbdead222	-0.11465861
5	0x3d599fe8	0.053131014
6	0xbdb5e382	-0.08881284
7	0xbcc94640	-0.02456963
8	0xbdfd2c62	-0.12361981
9	0xbdcd1bdc	-0.100150794
10	0xbdb5addc	-0.08871052
11	0xbc575500	-0.013142824
12	0xbd97d870	-0.07414329
13	0x3d8df678	0.06931776
14	0xbde4cc86	-0.11171822
15	0xbc9d1c50	-0.01917854
16	0x3d899756	0.06718318
17	0xbce1a470	-0.02754423
18	0x3dc19e3c	0.09454009
19	0x3df3f478	0.11911863
20	0xbde8fc1e	-0.113762125
21	0xbdb0c4ec	-0.0863131
22	0x3d305f14	0.043059424
23	0x3df64ae8	0.12026006
24	0x3dba7b90	0.09105599
25	0x3dee196e	0.11625944
26	0xbdaaabde	-0.08333562
27	0x3c8f84e8	0.01751943
28	0x3dc733a8	0.097266495
29	0xbda5540c	-0.08072671
30	0x3df40588	0.119151175
31	0xbd203b70	-0.039119184
32	0x3c381070	0.011234388
33	0xbc0c5580	-0.008565307
34	0x3d141bd8	0.036159366
35	0x3d450538	0.04810068
36	0x3d9dbe96	0.07702367
37	0x3ca72ee0	0.020408094
38	0xbdbb8eba	-0.09158082
39	0xbdeb501a	-0.114898875
40	0x3df613a6	0.120154664
41	0x3d276930	0.0408718
42	0xbdcf3d92	-0.101191655
43	0xb982ba00	-0.00024934113
44	0x3cb3e428	0.02195938
45	0x3de48d94	0.111598164
46	0xbdf85a6a	-0.1212662
47	0x3cf8a8f0	0.030353993
48	0xbdb67a14	-0.08910003
49	0xbd316008	-0.043304473
50	0xbd62b7ac	-0.055350944
51	0xbbe71e80	-0.0070531964
52	0x3c80e3b8	0.015733585
53	0x3d86b130	0.065767646
54	0x3de6e0de	0.11273359
55	0x3dfc2242	0.12311222
56	0x3dee5f26	0.11639242
57	0xbd96b9ea	-0.07359679
58	0xbc308860	-0.010774702
59	0xbdd5dd10	-0.10442555
60	0x3d3cb780	0.046073437
61	0xbd7eb0d0	-0.06218034
62	0x3dde4396	0.10852735
63	0xbdefe798	-0.11714095
64	0x3d94d2ba	0.072667554
65	0xbd1b7e94	-0.03796251
66	0xbdd5eb17	-0.104452305
67	0x3da9c4f6	0.082895204
68	0x3d6e3e3c	0.05816482
69	0xbd4ab134	-0.0494854
70	0x3d93688c	0.07197675
71	0xbd6915d0	-0.056905568
72	0x3d668624	0.05628027
73	0xbd963b82	-0.07335569
74	0xbc838490	-0.016054422
75	0xbc122e70	-0.008922204
76	0x3d9a81fe	0.07544325
77	0x3cfedebc	0.031112067
78	0xbdd230c2	-0.10263206
79	0x3d61b08d	0.055100013
80	0x3d7c0f3d	0.06153797
81	0x3dcf2fdc	0.1011655
82	0xbb888a20	-0.0041668564
83	0x3d9cbce9	0.07653219
84	0xbdafbb2e	-0.085806236
85	0xbc102937	-0.008798889
86	0xbd98e715	-0.074659504
87	0xbd8864ba	-0.06659837
88	0x3d257e0d	0.040403415
89	0xbd8f1f17	-0.06988352
90	0xbc1715f0	-0.009221539
91	0x3d9d3fcd	0.07678185
92	0xbc95fc2c	-0.018308721
93	0x3e0058e7	0.12533914
94	0x3d4c684a	0.049904145
95	0x3d9c6f7a	0.0763845
96	0xbd4c727a	-0.04991386
97	0xbddbe434	-0.10736886
98	0x3d938102	0.07202341
99	0xbbc15d20	-0.005900994
100	0x3d063581	0.03276587
101	0xbd74f5c0	-0.059804678
102	0xbd99ad3a	-0.075037435
103	0xbde9a16b	-0.11407741
104	0x3d0c6d46	0.0342839
105	0x3d2012d4	0.039080456
106	0xbde8da12	-0.113697186
107	0xbdb96d60	-0.09054065
108	0x3df452b4	0.11929837
109	0x3d175f64	0.036956206
110	0xbd3e2209	-0.046419177
111	0xbd800f38	-0.06252903
112	0xbb6d4893	-0.0036206588
113	0x3d7eae40	0.062177896
114	0xbdcc86cb	-0.09986647
115	0xbd0d27f0	-0.034461915
116	0x3c3cdb53	0.0115269
117	0xbd5f0124	-0.054444447
118	0xbded084e	-0.115738496
119	0xbc6ce251	-0.014458255
120	0x3defe5c8	0.11713749
121	0xbdafad03	-0.08577921
122	0x3cdd3e4d	0.027007246
123	0xbb6a9b70	-0.0035798214
124	0xbd9c4d72	-0.07631959
125	0x3e0242dc	0.12720817
126	0xbc3ab956	-0.011396727
127	0xbd3a1034	-0.04542561
128	0xbc880364	-0.01660318
129	0x3ceb99f0	0.028759927
130	0xbd594909	-0.053048167
131	0xbdc9aa03	-0.0984688
132	0x3dd21950	0.10258734
133	0xbdf184cc	-0.11792907
134	0x3ded4349	0.11585099
135	0x3d173190	0.0369125
136	0xbdb42684	-0.08796409
137	0x3dc4d3cf	0.09610712
138	0x3dbe933a	0.09305425
139	0x3d54bca8	0.05193773
140	0x3dc9cfde	0.09854101
141	0x3d7d4776	0.06183573
142	0xbe06eed1	-0.13177039
143	0xbcfb67a7	-0.030689074
144	0xbdf64a8a	-0.12025936
145	0xbd579cbc	-0.052639708
146	0xbdd2d0f1	-0.10293759
147	0xbc72cca6	-0.0148193
148	0xbdad423d	-0.084598996
149	0xbd0bacf6	-0.034100495
150	0xbd78bb1f	-0.060725328
151	0xbd505d78	-0.05087039
152	0xbd9d8c98	-0.07692832
153	0x3db948ae	0.09047066
154	0x3d8f0a64	0.06984404
155	0x3d763b03	0.06011487
156	0x3dd42671	0.103588946
157	0xbd26c7e0	-0.04071796
158	0x3dd13ddd	0.102168776
159	0x3dd83f2a	0.105589226
160	0x3dfa15fe	0.12211226
161	0xbd8539fe	-0.06505202
162	0xbda1177e	-0.07865809
163	0xbdbe00b4	-0.09277478
164	0x3c7d1251	0.0154462615
165	0xbd56d4e0	-0.052449107
166	0xbd8f08de	-0.06984113
167	0xbd70316b	-0.05864088
168	0xbdee2822	-0.116287485
169	0x3d4b80a1	0.049683217
170	0x3dceb468	0.100930035
171	0xbdbf69e2	-0.093463674
172	0xbdb9534b	-0.0904909
173	0x3d773588	0.060353786
174	0xbc15fd76	-0.009154668
175	0x3dcefeb4	0.101071745
176	0xbd8e737d	-0.069556214
177	0xbd11131c	-0.035418615
178	0x3d2e95fd	0.04262351
179	0x3bfd1760	0.007723734
180	0x3df48a1f	0.11940407
181	0xbda57948	-0.08079773
182	0x3d6a2c6d	0.057171274
183	0x3c739b1f	0.014868527
184	0x3cffd670	0.031230181
185	0x3d8973bf	0.0671153
186	0x3a751192	0.00093486265
187	0x3d976a66	0.07393341
188	0xbc6719a6	-0.014105236
189	0xbd375ef9	-0.044768307
190	0x3ce393b0	0.027780384
191	0xbd351a4c	-0.04421453
192	0x3df196fb	0.11796375
193	0xbdafe10e	-0.08587848
194	0xbcbbf5e8	-0.022944406
195	0x3d7eb139	0.06218073
196	0xbdaa59ae	-0.08317886
197	0x3dc07d65	0.09398917
198	0xbcb0c11a	-0.021576453
199	0xbcc08690	-0.023501664
200	0x3df3e34e	0.11908589
201	0xbda22cbd	-0.079186894
202	0x3db29b6e	0.08721052
203	0xbdeb3032	-0.11483802
204	0x3d908dda	0.07058306
205	0x3d61134d	0.054950047
206	0x3c8ed602	0.017436031
207	0x3dc69f98	0.09698409
208	0x3c58ebbe	0.013239799
209	0xbd192965	-0.037392993
210	0xbd578474	-0.05261655
211	0xbd075313	-0.03303821
212	0x3d3ad2c8	0.045611173
213	0xbc759c0e	-0.01499082
214	0xbdfcde2c	-0.123470634
215	0x3df4af18	0.11947459
216	0xbc24fd34	-0.010070134
217	0xbd02a7e0	-0.03189838
218	0xbcc226b9	-0.023700105
219	0x3d9c625f	0.0763595
220	0xbd773edb	-0.060362678
221	0xbdd445cf	-0.103648774
222	0x3c8c7eec	0.017150365
223	0xbd499d96	-0.04922255
224	0xbd2b8d50	-0.041882813
225	0x37f825f3	2.9581575e-05
226	0xbc7f7550	-0.015591934
227	0x3da2d72a	0.079511955
228	0x3d4c4fd9	0.049880836
229	0xbc54d7a0	-0.012990862
230	0xbc4b0830	-0.012392089
231	0xbbee8a2b	-0.0072796545
232	0xbe053d05	-0.13011558
233	0xbd8ce759	-0.068800636
234	0xbd9c77e8	-0.07640058
235	0x3d2c1e3c	0.04202102
236	0x3dcae750	0.099074006
237	0x3da1db06	0.079031035
238	0x3c02ea16	0.007990381
239	0x3d7eb980	0.062188625
240	0x3cdcaab4	0.026936866
241	0xbda41962	-0.08012654
242	0xbd17c265	-0.037050623
243	0xbc7695a0	-0.015050322
244	0x3d961881	0.073288925
245	0xbd5f62bc	-0.05453752
246	0xbd3c9593	-0.046041083
247	0x3da92141	0.08258296
248	0xbdea41ca	-0.114383295
249	0xbd635ac4	-0.055506483
250	0x3d852f31	0.06503142
251	0xbd8432fa	-0.064550355
252	0x3c4b6b9b	0.012415792
253	0xbdff70ec	-0.1247271
254	0xbcdbd321	-0.026834073
255	0x3ce8c768	0.028415397

layer.4.bias f4 [32]
0	0xbd228650	-0.03967887
1	0xbdcff518	-0.1015417
2	0xbd92eda6	-0.07174234
3	0x3d7cc0e8	0.061707407
4	0xbca5c2e8	-0.02023454
5	0xbe003880	-0.12521553
6	0xbdd8cae3	-0.105855726
7	0x3dca5a8a	0.0988055
8	0x3d96fd24	0.073725015
9	0xbd7c3321	-0.061572198
10	0xbda049c5	-0.078265704
11	0xbd1a5cb8	-0.03768608
12	0xbdd54367	-0.104132466
13	0xbda2a8be	-0.07942341
14	0x3d3642dd	0.04449736
15	0xbdfcbf27	-0.12341147
16	0xbdaaed39	-0.08346028
17	0xbc26e5d7	-0.010186634
18	0xbdef5042	-0.1168523
19	0xbddbcfe6	-0.10733013
20	0xbdb7fa46	-0.08983283
21	0x3dbf690c	0.09346208
22	0x3d62a557	0.05533346
23	0x3cbd3a90	0.023099214
24	0xbd0acff3	-0.033889722
25	0xbd5c2b84	-0.053752437
26	0x3d76c61e	0.060247533
27	0x3d829c8a	0.06377514
28	0x3d91ee89	0.07125575
29	0x3d75e607	0.060033824
30	0xbda9af50	-0.08285391
31	0xbc9b7a66	-0.018979263

layer.6.weight f4 [2, 32]
0	0xbd3e7588	-0.046498805
1	0x3dc732c5	0.097264804
2	0xbc3c0eaa	-0.011478106
3	0xbe253567	-0.16133653
4	0xbdfe24e8	-0.12409383
5	0xbe17b884	-0.14816481
6	0x3d1e6bc2	0.038676985
7	0xbcdc7686	-0.026911985
8	0x3e0d1fcc	0.13781661
9	0xbceac182	-0.028656725
10	0x3e34be27	0.17650662
11	0xbdb9d263	-0.09073331
12	0x3e0a93c0	0.13532925
13	0x3e11a406	0.14222726
14	0xbe00f647	-0.12593947
15	0xbdf170b7	-0.11789077
16	0xbdf15e1a	-0.117855266
17	0xbd24cca8	-0.040234238
18	0x3e281569	0.16414417
19	0x3dd6bd5e	0.10485338
20	0x3da1f292	0.07907595
21	0xbdf13c7f	-0.11779117
22	0xbdfa8cd0	-0.12233889
23	0xbd2630e4	-0.04057397
24	0xbe14c8d0	-0.14529729
25	0xbdfd9946	-0.1238275
26	0x3e2d8efc	0.16949075
27	0xbd753ba0	-0.059871316
28	0x3e198056	0.14990363
29	0xbdee0b3f	-0.11623239
30	0x3d7b747f	0.061390396
31	0x3dad60af	0.084657066
32	0x3d9201d8	0.07129258
33	0xbdcbf71b	-0.09959241
34	0xbcfa3780	-0.030544043
35	0xbd85c844	-0.06532338
36	0x3d5de2cc	0.05417137
37	0x3d651387	0.055926826
38	0xbe3681e9	-0.17822994
39	0x3e580e74	0.21099263
40	0xbcffeb76	-0.031240206
41	0x3db6db46	0.08928542
42	0xbe77e06f	-0.24206708
43	0xbe194d45	-0.14970882
44	0xbd3b5f01	-0.0457449
45	0x3e28a0e2	0.16467622
46	0x3e46351f	0.19356202
47	0xbda8707d	-0.082245804
48	0xbd70b95e	-0.05877053
49	0x3d654eca	0.055983342
50	0xbde00015	-0.10937516
51	0xbe0491ec	-0.1294629
52	0x3d1163a4	0.035495415
53	0xbd1e45b0	-0.038640678
54	0x3dd027d9	0.1016385
55	0x3e1dbd27	0.15404187
56	0x3df44d85	0.11928848
57	0xbd884b22	-0.066549554
58	0x3d08aba1	0.033366803
59	0x3e0e5a5b	0.13901655
60	0xbe08d180	-0.13361168
61	0xbe271914	-0.1631816
62	0xbaee0e10	-0.001816215
63	0xbdf48aa3	-0.11940505

layer.6.bias f4 [2]
0	0x3dd60e84	0.104519874
1	0x3e1cfaae	0.15330002
